…
  0.          0.          0.          0.          0.          0.          0.
  0.          0.          0.06877086  0.          0.          0.          0.
  0.          0.          0.          0.          0.          0.          0.
  0.          0.          0.          0.          0.062311    0.          0.
  0.        ]
sample lda vector:
(1001, 50)
Tensor("lstm_1/TensorArrayReadV3:0", shape=(?, 256), dtype=float32)
_________________________________________________________________
Layer (type)                 Output Shape              Param #   
=================================================================
body_input (InputLayer)      (None, 200)               0         
_________________________________________________________________
embedding_1 (Embedding)      (None, 200, 300)          10639800  
_________________________________________________________________
lstm_1 (LSTM)                (None, 256)               570368    
_________________________________________________________________
dense_1 (Dense)              (None, 1200)              308400    
_________________________________________________________________
dropout_1 (Dropout)          (None, 1200)              0         
_________________________________________________________________
batch_normalization_1 (Batch (None, 1200)              4800      
_________________________________________________________________
dense_2 (Dense)              (None, 600)               720600    
_________________________________________________________________
dropout_2 (Dropout)          (None, 600)               0         
_________________________________________________________________
batch_normalization_2 (Batch (None, 600)               2400      
_________________________________________________________________
out_sent (Dense)             (None, 2)                 1202      
=================================================================
Total params: 12,247,570
Trainable params: 12,243,970
Non-trainable params: 3,600
_________________________________________________________________
None
Train on 4999 samples, validate on 1001 samples
Epoch 1/100
 128/4999 [..............................] - ETA: 45s - loss: 1.0848 - acc: 0.5391
…
  0.01922263  0.          0.          0.          0.56653676  0.          0.
  0.          0.          0.          0.          0.          0.02120659
  0.          0.0260128   0.          0.          0.          0.          0.
  0.          0.          0.          0.          0.          0.          0.
  0.          0.          0.        ]
sample lda vector:
(1001, 50)
Tensor("lstm_1/TensorArrayReadV3:0", shape=(?, 256), dtype=float32)
_________________________________________________________________
Layer (type)                 Output Shape              Param #   
=================================================================
body_input (InputLayer)      (None, 200)               0         
_________________________________________________________________
embedding_1 (Embedding)      (None, 200, 300)          9071400   
_________________________________________________________________
lstm_1 (LSTM)                (None, 256)               570368    
_________________________________________________________________
dense_1 (Dense)              (None, 1200)              308400    
_________________________________________________________________
dropout_1 (Dropout)          (None, 1200)              0         
_________________________________________________________________
batch_normalization_1 (Batch (None, 1200)              4800      
_________________________________________________________________
dense_2 (Dense)              (None, 600)               720600    
_________________________________________________________________
dropout_2 (Dropout)          (None, 600)               0         
_________________________________________________________________
batch_normalization_2 (Batch (None, 600)               2400      
_________________________________________________________________
out_sent (Dense)             (None, 2)                 1202      
=================================================================
Total params: 10,679,170
Trainable params: 10,675,570
Non-trainable params: 3,600
_________________________________________________________________
None
Train on 4999 samples, validate on 1001 samples
Epoch 1/100
 128/4999 [..............................] - ETA: 30s - loss: 1.0802 - acc: 0.5156
…
  0.01922274  0.          0.          0.          0.56653645  0.          0.
  0.          0.          0.          0.          0.          0.02120596
  0.          0.02601206  0.          0.          0.          0.          0.
  0.          0.          0.          0.          0.          0.          0.
  0.          0.          0.        ]
sample lda vector:
(1001, 50)
Tensor("lstm_1/TensorArrayReadV3:0", shape=(?, 256), dtype=float32)
_________________________________________________________________
Layer (type)                 Output Shape              Param #   
=================================================================
body_input (InputLayer)      (None, 200)               0         
_________________________________________________________________
embedding_1 (Embedding)      (None, 200, 300)          10902000  
_________________________________________________________________
lstm_1 (LSTM)                (None, 256)               570368    
_________________________________________________________________
dense_1 (Dense)              (None, 1200)              308400    
_________________________________________________________________
dropout_1 (Dropout)          (None, 1200)              0         
_________________________________________________________________
batch_normalization_1 (Batch (None, 1200)              4800      
_________________________________________________________________
dense_2 (Dense)              (None, 600)               720600    
_________________________________________________________________
dropout_2 (Dropout)          (None, 600)               0         
_________________________________________________________________
batch_normalization_2 (Batch (None, 600)               2400      
_________________________________________________________________
out_sent (Dense)             (None, 2)                 1202      
=================================================================
Total params: 12,509,770
Trainable params: 12,506,170
Non-trainable params: 3,600
_________________________________________________________________
None
Train on 4999 samples, validate on 1001 samples
Epoch 1/100
 128/4999 [..............................] - ETA: 30s - loss: 1.0141 - acc: 0.5547
…
  0.01922262  0.          0.          0.          0.56654373  0.          0.
  0.          0.          0.          0.          0.          0.02120655
  0.          0.02601265  0.          0.          0.          0.          0.
  0.          0.          0.          0.          0.          0.          0.
  0.          0.          0.        ]
sample lda vector:
(1001, 50)
Tensor("lstm_1/TensorArrayReadV3:0", shape=(?, 256), dtype=float32)
_________________________________________________________________
Layer (type)                 Output Shape              Param #   
=================================================================
body_input (InputLayer)      (None, 200)               0         
_________________________________________________________________
embedding_1 (Embedding)      (None, 200, 300)          8952900   
_________________________________________________________________
lstm_1 (LSTM)                (None, 256)               570368    
_________________________________________________________________
dense_1 (Dense)              (None, 1200)              308400    
_________________________________________________________________
dropout_1 (Dropout)          (None, 1200)              0         
_________________________________________________________________
batch_normalization_1 (Batch (None, 1200)              4800      
_________________________________________________________________
dense_2 (Dense)              (None, 600)               720600    
_________________________________________________________________
dropout_2 (Dropout)          (None, 600)               0         
_________________________________________________________________
batch_normalization_2 (Batch (None, 600)               2400      
_________________________________________________________________
out_sent (Dense)             (None, 2)                 1202      
=================================================================
Total params: 10,560,670
Trainable params: 10,557,070
Non-trainable params: 3,600
_________________________________________________________________
None
Train on 4999 samples, validate on 1001 samples
Epoch 1/100
 128/4999 [..............................] - ETA: 30s - loss: 1.2324 - acc: 0.4375
…
