…
Distribution of labels in training set:
Counter({0: 3000, 1: 3000})
Distribution of labels in testing set:
Counter({0: 1000, 1: 1000})
sample lda vector:
sample lda vector:
[… sample lda vector:
(1001, 50)
(50, 256) (?, 50)
Adding the topic distribution vector to the input gate
Adding the topic distribution vector to the input gate
Tensor("lstm_custom_1/TensorArrayReadV3:0", shape=(?, 256), dtype=float32)
_________________________________________________________________
Layer (type)                 Output Shape              Param #   
=================================================================
body_input (InputLayer)      (None, 200)               0         
_________________________________________________________________
embedding_1 (Embedding)      (None, 200, 300)          10639800  
_________________________________________________________________
lstm_custom_1 (LSTMCustom)   (None, 256)               595968    
_________________________________________________________________
dense_1 (Dense)              (None, 1200)              308400    
_________________________________________________________________
dropout_1 (Dropout)          (None, 1200)              0         
_________________________________________________________________
batch_normalization_1 (Batch (None, 1200)              4800      
_________________________________________________________________
dense_2 (Dense)              (None, 600)               720600    
_________________________________________________________________
dropout_2 (Dropout)          (None, 600)               0         
_________________________________________________________________
batch_normalization_2 (Batch (None, 600)               2400      
_________________________________________________________________
out_sent (Dense)             (None, 2)                 1202      
=================================================================
Total params: 12,273,170
Trainable params: 12,269,570
Non-trainable params: 3,600
_________________________________________________________________
None
Train on 4999 samples, validate on 1001 samples
Epoch 1/100
 128/4999 [..............................] - ETA: 43s - loss: 0.9678 - acc: 0.5234
…
Distribution of labels in training set:
Counter({0: 3000, 1: 3000})
Distribution of labels in testing set:
Counter({0: 1000, 1: 1000})
sample lda vector:
sample lda vector:
[ … sample lda vector:
(1001, 50)
(50, 256) (?, 50)
Adding the topic distribution vector to the input gate
Adding the topic distribution vector to the input gate
Tensor("lstm_custom_1/TensorArrayReadV3:0", shape=(?, 256), dtype=float32)
_________________________________________________________________
Layer (type)                 Output Shape              Param #   
=================================================================
body_input (InputLayer)      (None, 200)               0         
_________________________________________________________________
embedding_1 (Embedding)      (None, 200, 300)          9071400   
_________________________________________________________________
lstm_custom_1 (LSTMCustom)   (None, 256)               595968    
_________________________________________________________________
dense_1 (Dense)              (None, 1200)              308400    
_________________________________________________________________
dropout_1 (Dropout)          (None, 1200)              0         
_________________________________________________________________
batch_normalization_1 (Batch (None, 1200)              4800      
_________________________________________________________________
dense_2 (Dense)              (None, 600)               720600    
_________________________________________________________________
dropout_2 (Dropout)          (None, 600)               0         
_________________________________________________________________
batch_normalization_2 (Batch (None, 600)               2400      
_________________________________________________________________
out_sent (Dense)             (None, 2)                 1202      
=================================================================
Total params: 10,704,770
Trainable params: 10,701,170
Non-trainable params: 3,600
_________________________________________________________________
None
Train on 4999 samples, validate on 1001 samples
Epoch 1/100
 128/4999 [..............................] - ETA: 37s - loss: 1.1371 - acc: 0.4844
…
Distribution of labels in training set:
Counter({0: 3000, 1: 3000})
Distribution of labels in testing set:
Counter({0: 1000, 1: 1000})
sample lda vector:
sample lda vector:
[ … sample lda vector:
(1001, 50)
(50, 256) (?, 50)
Adding the topic distribution vector to the input gate
Adding the topic distribution vector to the input gate
Tensor("lstm_custom_1/TensorArrayReadV3:0", shape=(?, 256), dtype=float32)
_________________________________________________________________
Layer (type)                 Output Shape              Param #   
=================================================================
body_input (InputLayer)      (None, 200)               0         
_________________________________________________________________
embedding_1 (Embedding)      (None, 200, 300)          10902000  
_________________________________________________________________
lstm_custom_1 (LSTMCustom)   (None, 256)               595968    
_________________________________________________________________
dense_1 (Dense)              (None, 1200)              308400    
_________________________________________________________________
dropout_1 (Dropout)          (None, 1200)              0         
_________________________________________________________________
batch_normalization_1 (Batch (None, 1200)              4800      
_________________________________________________________________
dense_2 (Dense)              (None, 600)               720600    
_________________________________________________________________
dropout_2 (Dropout)          (None, 600)               0         
_________________________________________________________________
batch_normalization_2 (Batch (None, 600)               2400      
_________________________________________________________________
out_sent (Dense)             (None, 2)                 1202      
=================================================================
Total params: 12,535,370
Trainable params: 12,531,770
Non-trainable params: 3,600
_________________________________________________________________
None
Train on 4999 samples, validate on 1001 samples
Epoch 1/100
 128/4999 [..............................] - ETA: 35s - loss: 1.1746 - acc: 0.4453
…
Distribution of labels in training set:
Counter({0: 3000, 1: 3000})
Distribution of labels in testing set:
Counter({0: 1000, 1: 1000})
sample lda vector:
sample lda vector:
[… sample lda vector:
(1001, 50)
(50, 256) (?, 50)
Adding the topic distribution vector to the input gate
Adding the topic distribution vector to the input gate
Tensor("lstm_custom_1/TensorArrayReadV3:0", shape=(?, 256), dtype=float32)
_________________________________________________________________
Layer (type)                 Output Shape              Param #   
=================================================================
body_input (InputLayer)      (None, 200)               0         
_________________________________________________________________
embedding_1 (Embedding)      (None, 200, 300)          8952900   
_________________________________________________________________
lstm_custom_1 (LSTMCustom)   (None, 256)               595968    
_________________________________________________________________
dense_1 (Dense)              (None, 1200)              308400    
_________________________________________________________________
dropout_1 (Dropout)          (None, 1200)              0         
_________________________________________________________________
batch_normalization_1 (Batch (None, 1200)              4800      
_________________________________________________________________
dense_2 (Dense)              (None, 600)               720600    
_________________________________________________________________
dropout_2 (Dropout)          (None, 600)               0         
_________________________________________________________________
batch_normalization_2 (Batch (None, 600)               2400      
_________________________________________________________________
out_sent (Dense)             (None, 2)                 1202      
=================================================================
Total params: 10,586,270
Trainable params: 10,582,670
Non-trainable params: 3,600
_________________________________________________________________
None
Train on 4999 samples, validate on 1001 samples
Epoch 1/100
 128/4999 [..............................] - ETA: 40s - loss: 1.3672 - acc: 0.5156
…
