…
Adding the topic distribution vector to the input gate
Adding the topic distribution vector to the input gate
Tensor("lstm_custom_1/TensorArrayReadV3:0", shape=(?, 256), dtype=float32)
./train_gru_attn.py:477: UserWarning: Update your `Model` call to the Keras 2 API: `Model([<tf.Tenso..., outputs=[<tf.Tenso...)`
  model = Model([review_text, lda_input], output=[output_layer])
_________________________________________________________________
Layer (type)                 Output Shape              Param #   
=================================================================
body_input (InputLayer)      (None, 200)               0         
_________________________________________________________________
embedding_1 (Embedding)      (None, 200, 300)          10639800  
_________________________________________________________________
lstm_custom_1 (LSTMCustom)   (None, 256)               595968    
_________________________________________________________________
dense_1 (Dense)              (None, 1200)              308400    
_________________________________________________________________
dropout_1 (Dropout)          (None, 1200)              0         
_________________________________________________________________
batch_normalization_1 (Batch (None, 1200)              4800      
_________________________________________________________________
dense_2 (Dense)              (None, 600)               720600    
_________________________________________________________________
dropout_2 (Dropout)          (None, 600)               0         
_________________________________________________________________
batch_normalization_2 (Batch (None, 600)               2400      
_________________________________________________________________
out_sent (Dense)             (None, 2)                 1202      
=================================================================
Total params: 12,273,170
Trainable params: 12,269,570
Non-trainable params: 3,600
_________________________________________________________________
None
Train on 4999 samples, validate on 1001 samples
Epoch 1/100
2017-12-14 23:03:31.741276: I tensorflow/core/common_runtime/gpu/pool_allocator.cc:247] PoolAllocator: After 13463 get requests, put_count=3648 evicted_count=1000 eviction_rate=0.274123 and unsatisfied allocation rate=0.810741
…
2017-12-14 23:20:16.236544: I tensorflow/core/common_runtime/gpu/gpu_device.cc:1030] Creating TensorFlow device (/gpu:0) -> (device: 0, name: TITAN X (Pascal), pci bus id: 0000:02:00.0)
(50, 256) (?, 50)
Adding the topic distribution vector to the input gate
Adding the topic distribution vector to the input gate
Tensor("lstm_custom_1/TensorArrayReadV3:0", shape=(?, 256), dtype=float32)
_________________________________________________________________
Layer (type)                 Output Shape              Param #   
=================================================================
body_input (InputLayer)      (None, 200)               0         
_________________________________________________________________
embedding_1 (Embedding)      (None, 200, 300)          9071400   
_________________________________________________________________
lstm_custom_1 (LSTMCustom)   (None, 256)               595968    
_________________________________________________________________
dense_1 (Dense)              (None, 1200)              308400    
_________________________________________________________________
dropout_1 (Dropout)          (None, 1200)              0         
_________________________________________________________________
batch_normalization_1 (Batch (None, 1200)              4800      
_________________________________________________________________
dense_2 (Dense)              (None, 600)               720600    
_________________________________________________________________
dropout_2 (Dropout)          (None, 600)               0         
_________________________________________________________________
batch_normalization_2 (Batch (None, 600)               2400      
_________________________________________________________________
out_sent (Dense)             (None, 2)                 1202      
=================================================================
Total params: 10,704,770
Trainable params: 10,701,170
Non-trainable params: 3,600
_________________________________________________________________
None
Train on 4999 samples, validate on 1001 samples
Epoch 1/100
  64/4999 [..............................] - ETA: 74s - loss: 1.2125 - acc: 0.5156
…
2017-12-14 23:41:36.118356: I tensorflow/core/common_runtime/gpu/gpu_device.cc:1030] Creating TensorFlow device (/gpu:0) -> (device: 0, name: TITAN X (Pascal), pci bus id: 0000:02:00.0)
(50, 256) (?, 50)
Adding the topic distribution vector to the input gate
Adding the topic distribution vector to the input gate
Tensor("lstm_custom_1/TensorArrayReadV3:0", shape=(?, 256), dtype=float32)
_________________________________________________________________
Layer (type)                 Output Shape              Param #   
=================================================================
body_input (InputLayer)      (None, 200)               0         
_________________________________________________________________
embedding_1 (Embedding)      (None, 200, 300)          10902000  
_________________________________________________________________
lstm_custom_1 (LSTMCustom)   (None, 256)               595968    
_________________________________________________________________
dense_1 (Dense)              (None, 1200)              308400    
_________________________________________________________________
dropout_1 (Dropout)          (None, 1200)              0         
_________________________________________________________________
batch_normalization_1 (Batch (None, 1200)              4800      
_________________________________________________________________
dense_2 (Dense)              (None, 600)               720600    
_________________________________________________________________
dropout_2 (Dropout)          (None, 600)               0         
_________________________________________________________________
batch_normalization_2 (Batch (None, 600)               2400      
_________________________________________________________________
out_sent (Dense)             (None, 2)                 1202      
=================================================================
Total params: 12,535,370
Trainable params: 12,531,770
Non-trainable params: 3,600
_________________________________________________________________
None
Train on 4999 samples, validate on 1001 samples
Epoch 1/100
  64/4999 [..............................] - ETA: 75s - loss: 1.0556 - acc: 0.5156
…
2017-12-15 00:08:15.535652: I tensorflow/core/common_runtime/gpu/gpu_device.cc:1030] Creating TensorFlow device (/gpu:0) -> (device: 0, name: TITAN X (Pascal), pci bus id: 0000:02:00.0)
(50, 256) (?, 50)
Adding the topic distribution vector to the input gate
Adding the topic distribution vector to the input gate
Tensor("lstm_custom_1/TensorArrayReadV3:0", shape=(?, 256), dtype=float32)
_________________________________________________________________
Layer (type)                 Output Shape              Param #   
=================================================================
body_input (InputLayer)      (None, 200)               0         
_________________________________________________________________
embedding_1 (Embedding)      (None, 200, 300)          8952900   
_________________________________________________________________
lstm_custom_1 (LSTMCustom)   (None, 256)               595968    
_________________________________________________________________
dense_1 (Dense)              (None, 1200)              308400    
_________________________________________________________________
dropout_1 (Dropout)          (None, 1200)              0         
_________________________________________________________________
batch_normalization_1 (Batch (None, 1200)              4800      
_________________________________________________________________
dense_2 (Dense)              (None, 600)               720600    
_________________________________________________________________
dropout_2 (Dropout)          (None, 600)               0         
_________________________________________________________________
batch_normalization_2 (Batch (None, 600)               2400      
_________________________________________________________________
out_sent (Dense)             (None, 2)                 1202      
=================================================================
Total params: 10,586,270
Trainable params: 10,582,670
Non-trainable params: 3,600
_________________________________________________________________
None
Train on 4999 samples, validate on 1001 samples
Epoch 1/100
  64/4999 [..............................] - ETA: 69s - loss: 0.9855 - acc: 0.5781
…
